…
{'fold': 9, 'epoch': 197, 'train_loss': 0.08552437968220625, 'val_loss': 1.1052789688110352, 'test_acc': 0.7606837606837606}
{'fold': 9, 'epoch': 198, 'train_loss': 0.06591656284162112, 'val_loss': 1.2689767576690414, 'test_acc': 0.7350427350427351}
{'fold': 9, 'epoch': 199, 'train_loss': 0.0645120940743393, 'val_loss': 1.2141874345958743, 'test_acc': 0.7863247863247863}
{'fold': 9, 'epoch': 200, 'train_loss': 0.054570121657087516, 'val_loss': 1.458924073439378, 'test_acc': 0.7777777777777778}
Val Loss: 0.4820, Test Accuracy: 0.756 ± 0.045, Duration: 2227.908
Best result - 0.756 ± 0.045
--
DD - GCN(
  (lin11): Linear(in_features=89, out_features=128, bias=True)
  (lin12): Linear(in_features=89, out_features=128, bias=True)
  (lin13): Linear(in_features=89, out_features=128, bias=True)
  (lin21): Linear(in_features=128, out_features=128, bias=True)
  (lin22): Linear(in_features=128, out_features=128, bias=True)
  (lin23): Linear(in_features=128, out_features=128, bias=True)
  (lin31): Linear(in_features=128, out_features=128, bias=True)
  (lin32): Linear(in_features=128, out_features=128, bias=True)
  (lin33): Linear(in_features=128, out_features=128, bias=True)
  (lin1): Linear(in_features=256, out_features=128, bias=True)
  (lin2): Linear(in_features=128, out_features=64, bias=True)
  (lin3): Linear(in_features=64, out_features=2, bias=True)
  (m): BatchNorm1d(2, eps=1e-05, momentum=0.1, affine=True, track_running_stats=True)
  (prop11): Gra_inc(K=1, temp=Parameter containing:
  tensor([0.8509, 0.8901], device='cuda:1', requires_grad=True))
  (prop12): Gra_inc(K=2, temp=Parameter containing:
  tensor([0.5646, 0.9719, 1.2061], device='cuda:1', requires_grad=True))
  (prop21): Gra_inc(K=1, temp=Parameter containing:
  tensor([1., 1.], device='cuda:1', requires_grad=True))
…
