…
{'fold': 9, 'epoch': 99, 'train_loss': 0.6588165106773376, 'val_loss': 0.8746994781494141, 'test_acc': 0.576}
{'fold': 9, 'epoch': 100, 'train_loss': 0.8393991794586182, 'val_loss': 0.9846388244628906, 'test_acc': 0.558}
Val Loss: 0.6301, Test Accuracy: 0.692 ± 0.074, Duration: 158.767
Best result - 0.692 ± 0.074
--
IMDB-MULTI - GCN(
  (conv1): GraphConv(89, 128)
  (pool1): TopKPooling(128, ratio=0.8, multiplier=1.0)
  (conv2): GraphConv(128, 128)
  (pool2): TopKPooling(128, ratio=0.8, multiplier=1.0)
  (conv3): GraphConv(128, 128)
  (pool3): TopKPooling(128, ratio=0.8, multiplier=1.0)
  (lin1): Linear(in_features=256, out_features=128, bias=True)
  (lin2): Linear(in_features=128, out_features=64, bias=True)
  (lin3): Linear(in_features=64, out_features=3, bias=True)
): 0.461 ± 0.034
MUTAG - GCN(
  (conv1): GraphConv(7, 128)
  (pool1): TopKPooling(128, ratio=0.8, multiplier=1.0)
  (conv2): GraphConv(128, 128)
  (pool2): TopKPooling(128, ratio=0.8, multiplier=1.0)
  (conv3): GraphConv(128, 128)
  (pool3): TopKPooling(128, ratio=0.8, multiplier=1.0)
  (lin1): Linear(in_features=256, out_features=128, bias=True)
  (lin2): Linear(in_features=128, out_features=64, bias=True)
  (lin3): Linear(in_features=64, out_features=2, bias=True)
): 0.782 ± 0.090
IMDB-BINARY - GCN(
  (conv1): GraphConv(136, 128)
  (pool1): TopKPooling(128, ratio=0.8, multiplier=1.0)
  (conv2): GraphConv(128, 128)
  (pool2): TopKPooling(128, ratio=0.8, multiplier=1.0)
  (conv3): GraphConv(128, 128)
  (pool3): TopKPooling(128, ratio=0.8, multiplier=1.0)
  (lin1): Linear(in_features=256, out_features=128, bias=True)
  (lin2): Linear(in_features=128, out_features=64, bias=True)
  (lin3): Linear(in_features=64, out_features=2, bias=True)
): 0.705 ± 0.049
REDDIT-BINARY - GCN(
  (conv1): GraphConv(1, 128)
  (pool1): TopKPooling(128, ratio=0.8, multiplier=1.0)
  (conv2): GraphConv(128, 128)
  (pool2): TopKPooling(128, ratio=0.8, multiplier=1.0)
  (conv3): GraphConv(128, 128)
  (pool3): TopKPooling(128, ratio=0.8, multiplier=1.0)
  (lin1): Linear(in_features=256, out_features=128, bias=True)
  (lin2): Linear(in_features=128, out_features=64, bias=True)
  (lin3): Linear(in_features=64, out_features=2, bias=True)
): 0.860 ± 0.032
DD - GCN(
  (conv1): GraphConv(89, 128)
  (pool1): TopKPooling(128, ratio=0.8, multiplier=1.0)
  (conv2): GraphConv(128, 128)
  (pool2): TopKPooling(128, ratio=0.8, multiplier=1.0)
  (conv3): GraphConv(128, 128)
  (pool3): TopKPooling(128, ratio=0.8, multiplier=1.0)
  (lin1): Linear(in_features=256, out_features=128, bias=True)
  (lin2): Linear(in_features=128, out_features=64, bias=True)
  (lin3): Linear(in_features=64, out_features=2, bias=True)
): 0.754 ± 0.027
NCI1 - GCN(
  (conv1): GraphConv(37, 128)
  (pool1): TopKPooling(128, ratio=0.8, multiplier=1.0)
  (conv2): GraphConv(128, 128)
  (pool2): TopKPooling(128, ratio=0.8, multiplier=1.0)
  (conv3): GraphConv(128, 128)
  (pool3): TopKPooling(128, ratio=0.8, multiplier=1.0)
  (lin1): Linear(in_features=256, out_features=128, bias=True)
  (lin2): Linear(in_features=128, out_features=64, bias=True)
  (lin3): Linear(in_features=64, out_features=2, bias=True)
): 0.758 ± 0.019
PROTEINS - GCN(
  (conv1): GraphConv(3, 128)
  (pool1): TopKPooling(128, ratio=0.8, multiplier=1.0)
  (conv2): GraphConv(128, 128)
  (pool2): TopKPooling(128, ratio=0.8, multiplier=1.0)
  (conv3): GraphConv(128, 128)
  (pool3): TopKPooling(128, ratio=0.8, multiplier=1.0)
  (lin1): Linear(in_features=256, out_features=128, bias=True)
  (lin2): Linear(in_features=128, out_features=64, bias=True)
  (lin3): Linear(in_features=64, out_features=2, bias=True)
): 0.741 ± 0.035
COLLAB - GCN(
  (conv1): GraphConv(492, 128)
  (pool1): TopKPooling(128, ratio=0.8, multiplier=1.0)
  (conv2): GraphConv(128, 128)
  (pool2): TopKPooling(128, ratio=0.8, multiplier=1.0)
  (conv3): GraphConv(128, 128)
  (pool3): TopKPooling(128, ratio=0.8, multiplier=1.0)
  (lin1): Linear(in_features=256, out_features=128, bias=True)
  (lin2): Linear(in_features=128, out_features=64, bias=True)
  (lin3): Linear(in_features=64, out_features=3, bias=True)
): 0.692 ± 0.074

Process finished with exit code 0
