…
Val Loss: 0.4385, Test Accuracy: 0.799 ± 0.016, Duration: 533.576
Best result - 0.799 ± 0.016
--
IMDB-MULTI - Classifier(
  (feature_extractor): GraphUNet(
    (down_convs): ModuleList(
      (0): GCNConv(89, 48)
      (1): GCNConv(48, 48)
      (2): GCNConv(48, 48)
      (3): GCNConv(48, 48)
      (4): GCNConv(48, 48)
    )
    (pools): ModuleList(
      (0): TopKPooling(48, ratio=0.9, multiplier=1.0)
      (1): TopKPooling(48, ratio=0.7, multiplier=1.0)
      (2): TopKPooling(48, ratio=0.6, multiplier=1.0)
      (3): TopKPooling(48, ratio=0.5, multiplier=1.0)
    )
    (bn_layers): ModuleList(
      (0): BatchNorm1d(48, eps=1e-05, momentum=0.1, affine=True, track_running_stats=True)
      (1): BatchNorm1d(48, eps=1e-05, momentum=0.1, affine=True, track_running_stats=True)
      (2): BatchNorm1d(48, eps=1e-05, momentum=0.1, affine=True, track_running_stats=True)
      (3): BatchNorm1d(48, eps=1e-05, momentum=0.1, affine=True, track_running_stats=True)
      (4): BatchNorm1d(48, eps=1e-05, momentum=0.1, affine=True, track_running_stats=True)
      (5): BatchNorm1d(48, eps=1e-05, momentum=0.1, affine=True, track_running_stats=True)
      (6): BatchNorm1d(48, eps=1e-05, momentum=0.1, affine=True, track_running_stats=True)
      (7): BatchNorm1d(48, eps=1e-05, momentum=0.1, affine=True, track_running_stats=True)
      (8): BatchNorm1d(48, eps=1e-05, momentum=0.1, affine=True, track_running_stats=True)
    )
    (up_convs): ModuleList(
      (0): GCNConv(48, 48)
      (1): GCNConv(48, 48)
      (2): GCNConv(48, 48)
      (3): GCNConv(48, 48)
      (4): GCNConv(96, 97)
    )
    (drop): Dropout(p=0.3, inplace=False)
  )
  (readout): Conv1dReadout(
    (conv1d_p1): Conv1d(1, 16, kernel_size=(97,), stride=(97,))
    (pool): MaxPool1d(kernel_size=2, stride=2, padding=0, dilation=1, ceil_mode=False)
    (conv1d_p2): Conv1d(16, 32, kernel_size=(5,), stride=(1,))
  )
  (mlp): MLPClassifier(
    (h1_weights): Linear(in_features=32, out_features=128, bias=True)
    (h2_weights): Linear(in_features=128, out_features=3, bias=True)
  )
): 0.498 ± 0.029
MUTAG - Classifier(
  (feature_extractor): GraphUNet(
    (down_convs): ModuleList(
      (0): GCNConv(7, 48)
      (1): GCNConv(48, 48)
      (2): GCNConv(48, 48)
      (3): GCNConv(48, 48)
      (4): GCNConv(48, 48)
    )
    (pools): ModuleList(
      (0): TopKPooling(48, ratio=0.9, multiplier=1.0)
      (1): TopKPooling(48, ratio=0.7, multiplier=1.0)
      (2): TopKPooling(48, ratio=0.6, multiplier=1.0)
      (3): TopKPooling(48, ratio=0.5, multiplier=1.0)
    )
    (bn_layers): ModuleList(
      (0): BatchNorm1d(48, eps=1e-05, momentum=0.1, affine=True, track_running_stats=True)
      (1): BatchNorm1d(48, eps=1e-05, momentum=0.1, affine=True, track_running_stats=True)
      (2): BatchNorm1d(48, eps=1e-05, momentum=0.1, affine=True, track_running_stats=True)
      (3): BatchNorm1d(48, eps=1e-05, momentum=0.1, affine=True, track_running_stats=True)
      (4): BatchNorm1d(48, eps=1e-05, momentum=0.1, affine=True, track_running_stats=True)
      (5): BatchNorm1d(48, eps=1e-05, momentum=0.1, affine=True, track_running_stats=True)
      (6): BatchNorm1d(48, eps=1e-05, momentum=0.1, affine=True, track_running_stats=True)
      (7): BatchNorm1d(48, eps=1e-05, momentum=0.1, affine=True, track_running_stats=True)
      (8): BatchNorm1d(48, eps=1e-05, momentum=0.1, affine=True, track_running_stats=True)
    )
    (up_convs): ModuleList(
      (0): GCNConv(48, 48)
      (1): GCNConv(48, 48)
      (2): GCNConv(48, 48)
      (3): GCNConv(48, 48)
      (4): GCNConv(96, 97)
    )
    (drop): Dropout(p=0.3, inplace=False)
  )
  (readout): Conv1dReadout(
    (conv1d_p1): Conv1d(1, 16, kernel_size=(97,), stride=(97,))
    (pool): MaxPool1d(kernel_size=2, stride=2, padding=0, dilation=1, ceil_mode=False)
    (conv1d_p2): Conv1d(16, 32, kernel_size=(5,), stride=(1,))
  )
  (mlp): MLPClassifier(
    (h1_weights): Linear(in_features=160, out_features=128, bias=True)
    (h2_weights): Linear(in_features=128, out_features=2, bias=True)
  )
): 0.857 ± 0.087
IMDB-BINARY - Classifier(
  (feature_extractor): GraphUNet(
    (down_convs): ModuleList(
      (0): GCNConv(136, 48)
      (1): GCNConv(48, 48)
      (2): GCNConv(48, 48)
      (3): GCNConv(48, 48)
      (4): GCNConv(48, 48)
    )
    (pools): ModuleList(
      (0): TopKPooling(48, ratio=0.9, multiplier=1.0)
      (1): TopKPooling(48, ratio=0.7, multiplier=1.0)
      (2): TopKPooling(48, ratio=0.6, multiplier=1.0)
      (3): TopKPooling(48, ratio=0.5, multiplier=1.0)
    )
    (bn_layers): ModuleList(
      (0): BatchNorm1d(48, eps=1e-05, momentum=0.1, affine=True, track_running_stats=True)
      (1): BatchNorm1d(48, eps=1e-05, momentum=0.1, affine=True, track_running_stats=True)
      (2): BatchNorm1d(48, eps=1e-05, momentum=0.1, affine=True, track_running_stats=True)
      (3): BatchNorm1d(48, eps=1e-05, momentum=0.1, affine=True, track_running_stats=True)
      (4): BatchNorm1d(48, eps=1e-05, momentum=0.1, affine=True, track_running_stats=True)
      (5): BatchNorm1d(48, eps=1e-05, momentum=0.1, affine=True, track_running_stats=True)
      (6): BatchNorm1d(48, eps=1e-05, momentum=0.1, affine=True, track_running_stats=True)
      (7): BatchNorm1d(48, eps=1e-05, momentum=0.1, affine=True, track_running_stats=True)
      (8): BatchNorm1d(48, eps=1e-05, momentum=0.1, affine=True, track_running_stats=True)
    )
    (up_convs): ModuleList(
      (0): GCNConv(48, 48)
      (1): GCNConv(48, 48)
      (2): GCNConv(48, 48)
      (3): GCNConv(48, 48)
      (4): GCNConv(96, 97)
    )
    (drop): Dropout(p=0.3, inplace=False)
  )
  (readout): Conv1dReadout(
    (conv1d_p1): Conv1d(1, 16, kernel_size=(97,), stride=(97,))
    (pool): MaxPool1d(kernel_size=2, stride=2, padding=0, dilation=1, ceil_mode=False)
    (conv1d_p2): Conv1d(16, 32, kernel_size=(5,), stride=(1,))
  )
  (mlp): MLPClassifier(
    (h1_weights): Linear(in_features=160, out_features=128, bias=True)
    (h2_weights): Linear(in_features=128, out_features=2, bias=True)
  )
): 0.736 ± 0.041
REDDIT-BINARY - Classifier(
  (feature_extractor): GraphUNet(
    (down_convs): ModuleList(
      (0): GCNConv(1, 48)
      (1): GCNConv(48, 48)
      (2): GCNConv(48, 48)
      (3): GCNConv(48, 48)
      (4): GCNConv(48, 48)
    )
    (pools): ModuleList(
      (0): TopKPooling(48, ratio=0.9, multiplier=1.0)
      (1): TopKPooling(48, ratio=0.7, multiplier=1.0)
      (2): TopKPooling(48, ratio=0.6, multiplier=1.0)
      (3): TopKPooling(48, ratio=0.5, multiplier=1.0)
    )
    (bn_layers): ModuleList(
      (0): BatchNorm1d(48, eps=1e-05, momentum=0.1, affine=True, track_running_stats=True)
      (1): BatchNorm1d(48, eps=1e-05, momentum=0.1, affine=True, track_running_stats=True)
      (2): BatchNorm1d(48, eps=1e-05, momentum=0.1, affine=True, track_running_stats=True)
      (3): BatchNorm1d(48, eps=1e-05, momentum=0.1, affine=True, track_running_stats=True)
      (4): BatchNorm1d(48, eps=1e-05, momentum=0.1, affine=True, track_running_stats=True)
      (5): BatchNorm1d(48, eps=1e-05, momentum=0.1, affine=True, track_running_stats=True)
      (6): BatchNorm1d(48, eps=1e-05, momentum=0.1, affine=True, track_running_stats=True)
      (7): BatchNorm1d(48, eps=1e-05, momentum=0.1, affine=True, track_running_stats=True)
      (8): BatchNorm1d(48, eps=1e-05, momentum=0.1, affine=True, track_running_stats=True)
    )
    (up_convs): ModuleList(
      (0): GCNConv(48, 48)
      (1): GCNConv(48, 48)
      (2): GCNConv(48, 48)
      (3): GCNConv(48, 48)
      (4): GCNConv(96, 97)
    )
    (drop): Dropout(p=0.3, inplace=False)
  )
  (readout): Conv1dReadout(
    (conv1d_p1): Conv1d(1, 16, kernel_size=(97,), stride=(97,))
    (pool): MaxPool1d(kernel_size=2, stride=2, padding=0, dilation=1, ceil_mode=False)
    (conv1d_p2): Conv1d(16, 32, kernel_size=(5,), stride=(1,))
  )
  (mlp): MLPClassifier(
    (h1_weights): Linear(in_features=5760, out_features=128, bias=True)
    (h2_weights): Linear(in_features=128, out_features=2, bias=True)
  )
): 0.878 ± 0.026
DD - Classifier(
  (feature_extractor): GraphUNet(
    (down_convs): ModuleList(
      (0): GCNConv(89, 48)
      (1): GCNConv(48, 48)
      (2): GCNConv(48, 48)
      (3): GCNConv(48, 48)
      (4): GCNConv(48, 48)
    )
    (pools): ModuleList(
      (0): TopKPooling(48, ratio=0.9, multiplier=1.0)
      (1): TopKPooling(48, ratio=0.7, multiplier=1.0)
      (2): TopKPooling(48, ratio=0.6, multiplier=1.0)
      (3): TopKPooling(48, ratio=0.5, multiplier=1.0)
    )
    (bn_layers): ModuleList(
      (0): BatchNorm1d(48, eps=1e-05, momentum=0.1, affine=True, track_running_stats=True)
      (1): BatchNorm1d(48, eps=1e-05, momentum=0.1, affine=True, track_running_stats=True)
      (2): BatchNorm1d(48, eps=1e-05, momentum=0.1, affine=True, track_running_stats=True)
      (3): BatchNorm1d(48, eps=1e-05, momentum=0.1, affine=True, track_running_stats=True)
      (4): BatchNorm1d(48, eps=1e-05, momentum=0.1, affine=True, track_running_stats=True)
      (5): BatchNorm1d(48, eps=1e-05, momentum=0.1, affine=True, track_running_stats=True)
      (6): BatchNorm1d(48, eps=1e-05, momentum=0.1, affine=True, track_running_stats=True)
      (7): BatchNorm1d(48, eps=1e-05, momentum=0.1, affine=True, track_running_stats=True)
      (8): BatchNorm1d(48, eps=1e-05, momentum=0.1, affine=True, track_running_stats=True)
    )
    (up_convs): ModuleList(
      (0): GCNConv(48, 48)
      (1): GCNConv(48, 48)
      (2): GCNConv(48, 48)
      (3): GCNConv(48, 48)
      (4): GCNConv(96, 97)
    )
    (drop): Dropout(p=0.3, inplace=False)
  )
  (readout): Conv1dReadout(
    (conv1d_p1): Conv1d(1, 16, kernel_size=(97,), stride=(97,))
    (pool): MaxPool1d(kernel_size=2, stride=2, padding=0, dilation=1, ceil_mode=False)
    (conv1d_p2): Conv1d(16, 32, kernel_size=(5,), stride=(1,))
  )
  (mlp): MLPClassifier(
    (h1_weights): Linear(in_features=4512, out_features=128, bias=True)
    (h2_weights): Linear(in_features=128, out_features=2, bias=True)
  )
): 0.776 ± 0.021
NCI1 - Classifier(
  (feature_extractor): GraphUNet(
    (down_convs): ModuleList(
      (0): GCNConv(37, 48)
      (1): GCNConv(48, 48)
      (2): GCNConv(48, 48)
      (3): GCNConv(48, 48)
      (4): GCNConv(48, 48)
    )
    (pools): ModuleList(
      (0): TopKPooling(48, ratio=0.9, multiplier=1.0)
      (1): TopKPooling(48, ratio=0.7, multiplier=1.0)
      (2): TopKPooling(48, ratio=0.6, multiplier=1.0)
      (3): TopKPooling(48, ratio=0.5, multiplier=1.0)
    )
    (bn_layers): ModuleList(
      (0): BatchNorm1d(48, eps=1e-05, momentum=0.1, affine=True, track_running_stats=True)
      (1): BatchNorm1d(48, eps=1e-05, momentum=0.1, affine=True, track_running_stats=True)
      (2): BatchNorm1d(48, eps=1e-05, momentum=0.1, affine=True, track_running_stats=True)
      (3): BatchNorm1d(48, eps=1e-05, momentum=0.1, affine=True, track_running_stats=True)
      (4): BatchNorm1d(48, eps=1e-05, momentum=0.1, affine=True, track_running_stats=True)
      (5): BatchNorm1d(48, eps=1e-05, momentum=0.1, affine=True, track_running_stats=True)
      (6): BatchNorm1d(48, eps=1e-05, momentum=0.1, affine=True, track_running_stats=True)
      (7): BatchNorm1d(48, eps=1e-05, momentum=0.1, affine=True, track_running_stats=True)
      (8): BatchNorm1d(48, eps=1e-05, momentum=0.1, affine=True, track_running_stats=True)
    )
    (up_convs): ModuleList(
      (0): GCNConv(48, 48)
      (1): GCNConv(48, 48)
      (2): GCNConv(48, 48)
      (3): GCNConv(48, 48)
      (4): GCNConv(96, 97)
    )
    (drop): Dropout(p=0.3, inplace=False)
  )
  (readout): Conv1dReadout(
    (conv1d_p1): Conv1d(1, 16, kernel_size=(97,), stride=(97,))
    (pool): MaxPool1d(kernel_size=2, stride=2, padding=0, dilation=1, ceil_mode=False)
    (conv1d_p2): Conv1d(16, 32, kernel_size=(5,), stride=(1,))
  )
  (mlp): MLPClassifier(
    (h1_weights): Linear(in_features=352, out_features=128, bias=True)
    (h2_weights): Linear(in_features=128, out_features=2, bias=True)
  )
): 0.750 ± 0.019
PROTEINS - Classifier(
  (feature_extractor): GraphUNet(
    (down_convs): ModuleList(
      (0): GCNConv(3, 48)
      (1): GCNConv(48, 48)
      (2): GCNConv(48, 48)
      (3): GCNConv(48, 48)
      (4): GCNConv(48, 48)
    )
    (pools): ModuleList(
      (0): TopKPooling(48, ratio=0.9, multiplier=1.0)
      (1): TopKPooling(48, ratio=0.7, multiplier=1.0)
      (2): TopKPooling(48, ratio=0.6, multiplier=1.0)
      (3): TopKPooling(48, ratio=0.5, multiplier=1.0)
    )
    (bn_layers): ModuleList(
      (0): BatchNorm1d(48, eps=1e-05, momentum=0.1, affine=True, track_running_stats=True)
      (1): BatchNorm1d(48, eps=1e-05, momentum=0.1, affine=True, track_running_stats=True)
      (2): BatchNorm1d(48, eps=1e-05, momentum=0.1, affine=True, track_running_stats=True)
      (3): BatchNorm1d(48, eps=1e-05, momentum=0.1, affine=True, track_running_stats=True)
      (4): BatchNorm1d(48, eps=1e-05, momentum=0.1, affine=True, track_running_stats=True)
      (5): BatchNorm1d(48, eps=1e-05, momentum=0.1, affine=True, track_running_stats=True)
      (6): BatchNorm1d(48, eps=1e-05, momentum=0.1, affine=True, track_running_stats=True)
      (7): BatchNorm1d(48, eps=1e-05, momentum=0.1, affine=True, track_running_stats=True)
      (8): BatchNorm1d(48, eps=1e-05, momentum=0.1, affine=True, track_running_stats=True)
    )
    (up_convs): ModuleList(
      (0): GCNConv(48, 48)
      (1): GCNConv(48, 48)
      (2): GCNConv(48, 48)
      (3): GCNConv(48, 48)
      (4): GCNConv(96, 97)
    )
    (drop): Dropout(p=0.3, inplace=False)
  )
  (readout): Conv1dReadout(
    (conv1d_p1): Conv1d(1, 16, kernel_size=(97,), stride=(97,))
    (pool): MaxPool1d(kernel_size=2, stride=2, padding=0, dilation=1, ceil_mode=False)
    (conv1d_p2): Conv1d(16, 32, kernel_size=(5,), stride=(1,))
  )
  (mlp): MLPClassifier(
    (h1_weights): Linear(in_features=384, out_features=128, bias=True)
    (h2_weights): Linear(in_features=128, out_features=2, bias=True)
  )
): 0.731 ± 0.047
COLLAB - Classifier(
  (feature_extractor): GraphUNet(
    (down_convs): ModuleList(
      (0): GCNConv(492, 48)
      (1): GCNConv(48, 48)
      (2): GCNConv(48, 48)
      (3): GCNConv(48, 48)
      (4): GCNConv(48, 48)
    )
    (pools): ModuleList(
      (0): TopKPooling(48, ratio=0.9, multiplier=1.0)
      (1): TopKPooling(48, ratio=0.7, multiplier=1.0)
      (2): TopKPooling(48, ratio=0.6, multiplier=1.0)
      (3): TopKPooling(48, ratio=0.5, multiplier=1.0)
    )
    (bn_layers): ModuleList(
      (0): BatchNorm1d(48, eps=1e-05, momentum=0.1, affine=True, track_running_stats=True)
      (1): BatchNorm1d(48, eps=1e-05, momentum=0.1, affine=True, track_running_stats=True)
      (2): BatchNorm1d(48, eps=1e-05, momentum=0.1, affine=True, track_running_stats=True)
      (3): BatchNorm1d(48, eps=1e-05, momentum=0.1, affine=True, track_running_stats=True)
      (4): BatchNorm1d(48, eps=1e-05, momentum=0.1, affine=True, track_running_stats=True)
      (5): BatchNorm1d(48, eps=1e-05, momentum=0.1, affine=True, track_running_stats=True)
      (6): BatchNorm1d(48, eps=1e-05, momentum=0.1, affine=True, track_running_stats=True)
      (7): BatchNorm1d(48, eps=1e-05, momentum=0.1, affine=True, track_running_stats=True)
      (8): BatchNorm1d(48, eps=1e-05, momentum=0.1, affine=True, track_running_stats=True)
    )
    (up_convs): ModuleList(
      (0): GCNConv(48, 48)
      (1): GCNConv(48, 48)
      (2): GCNConv(48, 48)
      (3): GCNConv(48, 48)
      (4): GCNConv(96, 97)
    )
    (drop): Dropout(p=0.3, inplace=False)
  )
  (readout): Conv1dReadout(
    (conv1d_p1): Conv1d(1, 16, kernel_size=(97,), stride=(97,))
    (pool): MaxPool1d(kernel_size=2, stride=2, padding=0, dilation=1, ceil_mode=False)
    (conv1d_p2): Conv1d(16, 32, kernel_size=(5,), stride=(1,))
  )
  (mlp): MLPClassifier(
    (h1_weights): Linear(in_features=832, out_features=128, bias=True)
    (h2_weights): Linear(in_features=128, out_features=3, bias=True)
  )
): 0.799 ± 0.016

Process finished with exit code 0
