…
{'fold': 9, 'epoch': 197, 'train_loss': 0.057149971374310556, 'val_loss': 0.4692530064582825, 'test_acc': 0.954}
{'fold': 9, 'epoch': 198, 'train_loss': 0.05640779970679432, 'val_loss': 0.5561376271247864, 'test_acc': 0.952}
{'fold': 9, 'epoch': 199, 'train_loss': 0.06337505311239511, 'val_loss': 0.6091167039871216, 'test_acc': 0.958}
{'fold': 9, 'epoch': 200, 'train_loss': 0.059222595687024294, 'val_loss': 0.6073405904769897, 'test_acc': 0.946}
Val Loss: 0.3070, Test Accuracy: 0.914 ± 0.045, Duration: 575.870
Best result - 0.914 ± 0.045
--
IMDB-MULTI - Classifier(
  (feature_extractor): GraUNet(
    (down_convs): ModuleList(
      (0): ConvG(
        (lin11): Linear(in_features=89, out_features=48, bias=False)
        (lin): Linear(in_features=89, out_features=48, bias=False)
        (prop11): Gra_inc(K=2, temp=Parameter containing:
        tensor([0.6925, 0.7815, 1.0255], device='cuda:0', requires_grad=True))
      )
      (1): ConvG(
        (lin11): Linear(in_features=48, out_features=48, bias=False)
        (lin): Linear(in_features=48, out_features=48, bias=False)
        (prop11): Gra_inc(K=2, temp=Parameter containing:
        tensor([0.6744, 0.8451, 0.9818], device='cuda:0', requires_grad=True))
      )
      (2): ConvG(
        (lin11): Linear(in_features=48, out_features=48, bias=False)
        (lin): Linear(in_features=48, out_features=48, bias=False)
        (prop11): Gra_inc(K=2, temp=Parameter containing:
        tensor([0.9019, 0.8769, 0.8789], device='cuda:0', requires_grad=True))
      )
      (3): ConvG(
        (lin11): Linear(in_features=48, out_features=48, bias=False)
        (lin): Linear(in_features=48, out_features=48, bias=False)
        (prop11): Gra_inc(K=2, temp=Parameter containing:
        tensor([0.9789, 0.9653, 0.9600], device='cuda:0', requires_grad=True))
      )
      (4): ConvG(
        (lin11): Linear(in_features=48, out_features=48, bias=False)
        (lin): Linear(in_features=48, out_features=48, bias=False)
        (prop11): Gra_inc(K=2, temp=Parameter containing:
        tensor([0.9890, 0.9970, 0.9978], device='cuda:0', requires_grad=True))
      )
    )
    (pools): ModuleList(
      (0): TopKPooling(48, ratio=0.9, multiplier=1.0)
      (1): TopKPooling(48, ratio=0.7, multiplier=1.0)
      (2): TopKPooling(48, ratio=0.6, multiplier=1.0)
      (3): TopKPooling(48, ratio=0.5, multiplier=1.0)
    )
    (bn_layers): ModuleList(
      (0): BatchNorm1d(48, eps=1e-05, momentum=0.1, affine=True, track_running_stats=True)
      (1): BatchNorm1d(48, eps=1e-05, momentum=0.1, affine=True, track_running_stats=True)
      (2): BatchNorm1d(48, eps=1e-05, momentum=0.1, affine=True, track_running_stats=True)
      (3): BatchNorm1d(48, eps=1e-05, momentum=0.1, affine=True, track_running_stats=True)
      (4): BatchNorm1d(48, eps=1e-05, momentum=0.1, affine=True, track_running_stats=True)
      (5): BatchNorm1d(48, eps=1e-05, momentum=0.1, affine=True, track_running_stats=True)
      (6): BatchNorm1d(48, eps=1e-05, momentum=0.1, affine=True, track_running_stats=True)
      (7): BatchNorm1d(48, eps=1e-05, momentum=0.1, affine=True, track_running_stats=True)
      (8): BatchNorm1d(48, eps=1e-05, momentum=0.1, affine=True, track_running_stats=True)
    )
    (up_convs): ModuleList(
      (0): ConvG(
        (lin11): Linear(in_features=48, out_features=48, bias=False)
        (lin): Linear(in_features=48, out_features=48, bias=False)
        (prop11): Gra_inc(K=2, temp=Parameter containing:
        tensor([0.9737, 0.9657, 0.9638], device='cuda:0', requires_grad=True))
      )
      (1): ConvG(
        (lin11): Linear(in_features=48, out_features=48, bias=False)
        (lin): Linear(in_features=48, out_features=48, bias=False)
        (prop11): Gra_inc(K=2, temp=Parameter containing:
        tensor([0.9059, 0.8816, 0.8793], device='cuda:0', requires_grad=True))
      )
      (2): ConvG(
        (lin11): Linear(in_features=48, out_features=48, bias=False)
        (lin): Linear(in_features=48, out_features=48, bias=False)
        (prop11): Gra_inc(K=2, temp=Parameter containing:
        tensor([0.8973, 0.9361, 0.9860], device='cuda:0', requires_grad=True))
      )
      (3): ConvG(
        (lin11): Linear(in_features=48, out_features=48, bias=False)
        (lin): Linear(in_features=48, out_features=48, bias=False)
        (prop11): Gra_inc(K=2, temp=Parameter containing:
        tensor([0.8659, 0.9036, 0.9390], device='cuda:0', requires_grad=True))
      )
      (4): ConvG(
        (lin11): Linear(in_features=96, out_features=97, bias=False)
        (lin): Linear(in_features=96, out_features=97, bias=False)
        (prop11): Gra_inc(K=2, temp=Parameter containing:
        tensor([0.8742, 0.9142, 0.9511], device='cuda:0', requires_grad=True))
      )
    )
    (drop): Dropout(p=0.3, inplace=False)
  )
  (readout): Conv1dReadout(
    (conv1d_p1): Conv1d(1, 16, kernel_size=(97,), stride=(97,))
    (pool): MaxPool1d(kernel_size=2, stride=2, padding=0, dilation=1, ceil_mode=False)
    (conv1d_p2): Conv1d(16, 32, kernel_size=(5,), stride=(1,))
  )
  (mlp): MLPClassifier(
    (h1_weights): Linear(in_features=32, out_features=128, bias=True)
    (h2_weights): Linear(in_features=128, out_features=3, bias=True)
  )
): 0.579 ± 0.039
MUTAG - Classifier(
  (feature_extractor): GraUNet(
    (down_convs): ModuleList(
      (0): ConvG(
        (lin11): Linear(in_features=7, out_features=48, bias=False)
        (lin): Linear(in_features=7, out_features=48, bias=False)
        (prop11): Gra_inc(K=2, temp=Parameter containing:
        tensor([0.9824, 0.9946, 0.9927], device='cuda:0', requires_grad=True))
      )
      (1): ConvG(
        (lin11): Linear(in_features=48, out_features=48, bias=False)
        (lin): Linear(in_features=48, out_features=48, bias=False)
        (prop11): Gra_inc(K=2, temp=Parameter containing:
        tensor([0.9780, 0.9750, 0.9743], device='cuda:0', requires_grad=True))
      )
      (2): ConvG(
        (lin11): Linear(in_features=48, out_features=48, bias=False)
        (lin): Linear(in_features=48, out_features=48, bias=False)
        (prop11): Gra_inc(K=2, temp=Parameter containing:
        tensor([0.9795, 0.9795, 0.9798], device='cuda:0', requires_grad=True))
      )
      (3): ConvG(
        (lin11): Linear(in_features=48, out_features=48, bias=False)
        (lin): Linear(in_features=48, out_features=48, bias=False)
        (prop11): Gra_inc(K=2, temp=Parameter containing:
        tensor([0.9881, 0.9877, 0.9871], device='cuda:0', requires_grad=True))
      )
      (4): ConvG(
        (lin11): Linear(in_features=48, out_features=48, bias=False)
        (lin): Linear(in_features=48, out_features=48, bias=False)
        (prop11): Gra_inc(K=2, temp=Parameter containing:
        tensor([0.9957, 0.9951, 0.9949], device='cuda:0', requires_grad=True))
      )
    )
    (pools): ModuleList(
      (0): TopKPooling(48, ratio=0.9, multiplier=1.0)
      (1): TopKPooling(48, ratio=0.7, multiplier=1.0)
      (2): TopKPooling(48, ratio=0.6, multiplier=1.0)
      (3): TopKPooling(48, ratio=0.5, multiplier=1.0)
    )
    (bn_layers): ModuleList(
      (0): BatchNorm1d(48, eps=1e-05, momentum=0.1, affine=True, track_running_stats=True)
      (1): BatchNorm1d(48, eps=1e-05, momentum=0.1, affine=True, track_running_stats=True)
      (2): BatchNorm1d(48, eps=1e-05, momentum=0.1, affine=True, track_running_stats=True)
      (3): BatchNorm1d(48, eps=1e-05, momentum=0.1, affine=True, track_running_stats=True)
      (4): BatchNorm1d(48, eps=1e-05, momentum=0.1, affine=True, track_running_stats=True)
      (5): BatchNorm1d(48, eps=1e-05, momentum=0.1, affine=True, track_running_stats=True)
      (6): BatchNorm1d(48, eps=1e-05, momentum=0.1, affine=True, track_running_stats=True)
      (7): BatchNorm1d(48, eps=1e-05, momentum=0.1, affine=True, track_running_stats=True)
      (8): BatchNorm1d(48, eps=1e-05, momentum=0.1, affine=True, track_running_stats=True)
    )
    (up_convs): ModuleList(
      (0): ConvG(
        (lin11): Linear(in_features=48, out_features=48, bias=False)
        (lin): Linear(in_features=48, out_features=48, bias=False)
        (prop11): Gra_inc(K=2, temp=Parameter containing:
        tensor([0.9858, 0.9866, 0.9863], device='cuda:0', requires_grad=True))
      )
      (1): ConvG(
        (lin11): Linear(in_features=48, out_features=48, bias=False)
        (lin): Linear(in_features=48, out_features=48, bias=False)
        (prop11): Gra_inc(K=2, temp=Parameter containing:
        tensor([0.9781, 0.9753, 0.9758], device='cuda:0', requires_grad=True))
      )
      (2): ConvG(
        (lin11): Linear(in_features=48, out_features=48, bias=False)
        (lin): Linear(in_features=48, out_features=48, bias=False)
        (prop11): Gra_inc(K=2, temp=Parameter containing:
        tensor([0.9628, 0.9662, 0.9695], device='cuda:0', requires_grad=True))
      )
      (3): ConvG(
        (lin11): Linear(in_features=48, out_features=48, bias=False)
        (lin): Linear(in_features=48, out_features=48, bias=False)
        (prop11): Gra_inc(K=2, temp=Parameter containing:
        tensor([0.9926, 0.9957, 0.9963], device='cuda:0', requires_grad=True))
      )
      (4): ConvG(
        (lin11): Linear(in_features=96, out_features=97, bias=False)
        (lin): Linear(in_features=96, out_features=97, bias=False)
        (prop11): Gra_inc(K=2, temp=Parameter containing:
        tensor([1.0012, 1.0051, 1.0052], device='cuda:0', requires_grad=True))
      )
    )
    (drop): Dropout(p=0.3, inplace=False)
  )
  (readout): Conv1dReadout(
    (conv1d_p1): Conv1d(1, 16, kernel_size=(97,), stride=(97,))
    (pool): MaxPool1d(kernel_size=2, stride=2, padding=0, dilation=1, ceil_mode=False)
    (conv1d_p2): Conv1d(16, 32, kernel_size=(5,), stride=(1,))
  )
  (mlp): MLPClassifier(
    (h1_weights): Linear(in_features=160, out_features=128, bias=True)
    (h2_weights): Linear(in_features=128, out_features=2, bias=True)
  )
): 0.830 ± 0.092
IMDB-BINARY - Classifier(
  (feature_extractor): GraUNet(
    (down_convs): ModuleList(
      (0): ConvG(
        (lin11): Linear(in_features=136, out_features=48, bias=False)
        (lin): Linear(in_features=136, out_features=48, bias=False)
        (prop11): Gra_inc(K=2, temp=Parameter containing:
        tensor([0.9593, 0.9853, 1.0124], device='cuda:0', requires_grad=True))
      )
      (1): ConvG(
        (lin11): Linear(in_features=48, out_features=48, bias=False)
        (lin): Linear(in_features=48, out_features=48, bias=False)
        (prop11): Gra_inc(K=2, temp=Parameter containing:
        tensor([0.9693, 0.9674, 0.9656], device='cuda:0', requires_grad=True))
      )
      (2): ConvG(
        (lin11): Linear(in_features=48, out_features=48, bias=False)
        (lin): Linear(in_features=48, out_features=48, bias=False)
        (prop11): Gra_inc(K=2, temp=Parameter containing:
        tensor([0.9764, 0.9738, 0.9719], device='cuda:0', requires_grad=True))
      )
      (3): ConvG(
        (lin11): Linear(in_features=48, out_features=48, bias=False)
        (lin): Linear(in_features=48, out_features=48, bias=False)
        (prop11): Gra_inc(K=2, temp=Parameter containing:
        tensor([0.9752, 0.9767, 0.9773], device='cuda:0', requires_grad=True))
      )
      (4): ConvG(
        (lin11): Linear(in_features=48, out_features=48, bias=False)
        (lin): Linear(in_features=48, out_features=48, bias=False)
        (prop11): Gra_inc(K=2, temp=Parameter containing:
        tensor([0.9795, 0.9768, 0.9739], device='cuda:0', requires_grad=True))
      )
    )
    (pools): ModuleList(
      (0): TopKPooling(48, ratio=0.9, multiplier=1.0)
      (1): TopKPooling(48, ratio=0.7, multiplier=1.0)
      (2): TopKPooling(48, ratio=0.6, multiplier=1.0)
      (3): TopKPooling(48, ratio=0.5, multiplier=1.0)
    )
    (bn_layers): ModuleList(
      (0): BatchNorm1d(48, eps=1e-05, momentum=0.1, affine=True, track_running_stats=True)
      (1): BatchNorm1d(48, eps=1e-05, momentum=0.1, affine=True, track_running_stats=True)
      (2): BatchNorm1d(48, eps=1e-05, momentum=0.1, affine=True, track_running_stats=True)
      (3): BatchNorm1d(48, eps=1e-05, momentum=0.1, affine=True, track_running_stats=True)
      (4): BatchNorm1d(48, eps=1e-05, momentum=0.1, affine=True, track_running_stats=True)
      (5): BatchNorm1d(48, eps=1e-05, momentum=0.1, affine=True, track_running_stats=True)
      (6): BatchNorm1d(48, eps=1e-05, momentum=0.1, affine=True, track_running_stats=True)
      (7): BatchNorm1d(48, eps=1e-05, momentum=0.1, affine=True, track_running_stats=True)
      (8): BatchNorm1d(48, eps=1e-05, momentum=0.1, affine=True, track_running_stats=True)
    )
    (up_convs): ModuleList(
      (0): ConvG(
        (lin11): Linear(in_features=48, out_features=48, bias=False)
        (lin): Linear(in_features=48, out_features=48, bias=False)
        (prop11): Gra_inc(K=2, temp=Parameter containing:
        tensor([0.9778, 0.9775, 0.9786], device='cuda:0', requires_grad=True))
      )
      (1): ConvG(
        (lin11): Linear(in_features=48, out_features=48, bias=False)
        (lin): Linear(in_features=48, out_features=48, bias=False)
        (prop11): Gra_inc(K=2, temp=Parameter containing:
        tensor([0.9720, 0.9721, 0.9754], device='cuda:0', requires_grad=True))
      )
      (2): ConvG(
        (lin11): Linear(in_features=48, out_features=48, bias=False)
        (lin): Linear(in_features=48, out_features=48, bias=False)
        (prop11): Gra_inc(K=2, temp=Parameter containing:
        tensor([0.9657, 0.9597, 0.9692], device='cuda:0', requires_grad=True))
      )
      (3): ConvG(
        (lin11): Linear(in_features=48, out_features=48, bias=False)
        (lin): Linear(in_features=48, out_features=48, bias=False)
        (prop11): Gra_inc(K=2, temp=Parameter containing:
        tensor([0.9868, 1.0065, 1.0156], device='cuda:0', requires_grad=True))
      )
      (4): ConvG(
        (lin11): Linear(in_features=96, out_features=97, bias=False)
        (lin): Linear(in_features=96, out_features=97, bias=False)
        (prop11): Gra_inc(K=2, temp=Parameter containing:
        tensor([0.9878, 1.0092, 1.0191], device='cuda:0', requires_grad=True))
      )
    )
    (drop): Dropout(p=0.3, inplace=False)
  )
  (readout): Conv1dReadout(
    (conv1d_p1): Conv1d(1, 16, kernel_size=(97,), stride=(97,))
    (pool): MaxPool1d(kernel_size=2, stride=2, padding=0, dilation=1, ceil_mode=False)
    (conv1d_p2): Conv1d(16, 32, kernel_size=(5,), stride=(1,))
  )
  (mlp): MLPClassifier(
    (h1_weights): Linear(in_features=160, out_features=128, bias=True)
    (h2_weights): Linear(in_features=128, out_features=2, bias=True)
  )
): 0.792 ± 0.062
REDDIT-BINARY - Classifier(
  (feature_extractor): GraUNet(
    (down_convs): ModuleList(
      (0): ConvG(
        (lin11): Linear(in_features=1, out_features=48, bias=False)
        (lin): Linear(in_features=1, out_features=48, bias=False)
        (prop11): Gra_inc(K=2, temp=Parameter containing:
        tensor([0.9968, 0.9490, 0.9424], device='cuda:0', requires_grad=True))
      )
      (1): ConvG(
        (lin11): Linear(in_features=48, out_features=48, bias=False)
        (lin): Linear(in_features=48, out_features=48, bias=False)
        (prop11): Gra_inc(K=2, temp=Parameter containing:
        tensor([0.9518, 0.9481, 0.8967], device='cuda:0', requires_grad=True))
      )
      (2): ConvG(
        (lin11): Linear(in_features=48, out_features=48, bias=False)
        (lin): Linear(in_features=48, out_features=48, bias=False)
        (prop11): Gra_inc(K=2, temp=Parameter containing:
        tensor([0.9436, 0.9280, 0.9174], device='cuda:0', requires_grad=True))
      )
      (3): ConvG(
        (lin11): Linear(in_features=48, out_features=48, bias=False)
        (lin): Linear(in_features=48, out_features=48, bias=False)
        (prop11): Gra_inc(K=2, temp=Parameter containing:
        tensor([0.9554, 0.9514, 0.9495], device='cuda:0', requires_grad=True))
      )
      (4): ConvG(
        (lin11): Linear(in_features=48, out_features=48, bias=False)
        (lin): Linear(in_features=48, out_features=48, bias=False)
        (prop11): Gra_inc(K=2, temp=Parameter containing:
        tensor([0.9885, 0.9810, 0.9779], device='cuda:0', requires_grad=True))
      )
    )
    (pools): ModuleList(
      (0): TopKPooling(48, ratio=0.9, multiplier=1.0)
      (1): TopKPooling(48, ratio=0.7, multiplier=1.0)
      (2): TopKPooling(48, ratio=0.6, multiplier=1.0)
      (3): TopKPooling(48, ratio=0.5, multiplier=1.0)
    )
    (bn_layers): ModuleList(
      (0): BatchNorm1d(48, eps=1e-05, momentum=0.1, affine=True, track_running_stats=True)
      (1): BatchNorm1d(48, eps=1e-05, momentum=0.1, affine=True, track_running_stats=True)
      (2): BatchNorm1d(48, eps=1e-05, momentum=0.1, affine=True, track_running_stats=True)
      (3): BatchNorm1d(48, eps=1e-05, momentum=0.1, affine=True, track_running_stats=True)
      (4): BatchNorm1d(48, eps=1e-05, momentum=0.1, affine=True, track_running_stats=True)
      (5): BatchNorm1d(48, eps=1e-05, momentum=0.1, affine=True, track_running_stats=True)
      (6): BatchNorm1d(48, eps=1e-05, momentum=0.1, affine=True, track_running_stats=True)
      (7): BatchNorm1d(48, eps=1e-05, momentum=0.1, affine=True, track_running_stats=True)
      (8): BatchNorm1d(48, eps=1e-05, momentum=0.1, affine=True, track_running_stats=True)
    )
    (up_convs): ModuleList(
      (0): ConvG(
        (lin11): Linear(in_features=48, out_features=48, bias=False)
        (lin): Linear(in_features=48, out_features=48, bias=False)
        (prop11): Gra_inc(K=2, temp=Parameter containing:
        tensor([0.9604, 0.9523, 0.9492], device='cuda:0', requires_grad=True))
      )
      (1): ConvG(
        (lin11): Linear(in_features=48, out_features=48, bias=False)
        (lin): Linear(in_features=48, out_features=48, bias=False)
        (prop11): Gra_inc(K=2, temp=Parameter containing:
        tensor([0.9477, 0.9180, 0.9060], device='cuda:0', requires_grad=True))
      )
      (2): ConvG(
        (lin11): Linear(in_features=48, out_features=48, bias=False)
        (lin): Linear(in_features=48, out_features=48, bias=False)
        (prop11): Gra_inc(K=2, temp=Parameter containing:
        tensor([0.9223, 0.9328, 0.9360], device='cuda:0', requires_grad=True))
      )
      (3): ConvG(
        (lin11): Linear(in_features=48, out_features=48, bias=False)
        (lin): Linear(in_features=48, out_features=48, bias=False)
        (prop11): Gra_inc(K=2, temp=Parameter containing:
        tensor([0.9118, 0.9524, 0.9923], device='cuda:0', requires_grad=True))
      )
      (4): ConvG(
        (lin11): Linear(in_features=96, out_features=97, bias=False)
        (lin): Linear(in_features=96, out_features=97, bias=False)
        (prop11): Gra_inc(K=2, temp=Parameter containing:
        tensor([0.8854, 0.9063, 0.9706], device='cuda:0', requires_grad=True))
      )
    )
    (drop): Dropout(p=0.3, inplace=False)
  )
  (readout): Conv1dReadout(
    (conv1d_p1): Conv1d(1, 16, kernel_size=(97,), stride=(97,))
    (pool): MaxPool1d(kernel_size=2, stride=2, padding=0, dilation=1, ceil_mode=False)
    (conv1d_p2): Conv1d(16, 32, kernel_size=(5,), stride=(1,))
  )
  (mlp): MLPClassifier(
    (h1_weights): Linear(in_features=5760, out_features=128, bias=True)
    (h2_weights): Linear(in_features=128, out_features=2, bias=True)
  )
): 0.872 ± 0.025
DD - Classifier(
  (feature_extractor): GraUNet(
    (down_convs): ModuleList(
      (0): ConvG(
        (lin11): Linear(in_features=89, out_features=48, bias=False)
        (lin): Linear(in_features=89, out_features=48, bias=False)
        (prop11): Gra_inc(K=2, temp=Parameter containing:
        tensor([0.8244, 0.8893, 1.0906], device='cuda:0', requires_grad=True))
      )
      (1): ConvG(
        (lin11): Linear(in_features=48, out_features=48, bias=False)
        (lin): Linear(in_features=48, out_features=48, bias=False)
        (prop11): Gra_inc(K=2, temp=Parameter containing:
        tensor([0.8551, 0.9111, 0.9508], device='cuda:0', requires_grad=True))
      )
      (2): ConvG(
        (lin11): Linear(in_features=48, out_features=48, bias=False)
        (lin): Linear(in_features=48, out_features=48, bias=False)
        (prop11): Gra_inc(K=2, temp=Parameter containing:
        tensor([0.9254, 0.9214, 0.9207], device='cuda:0', requires_grad=True))
      )
      (3): ConvG(
        (lin11): Linear(in_features=48, out_features=48, bias=False)
        (lin): Linear(in_features=48, out_features=48, bias=False)
        (prop11): Gra_inc(K=2, temp=Parameter containing:
        tensor([0.9557, 0.9563, 0.9573], device='cuda:0', requires_grad=True))
      )
      (4): ConvG(
        (lin11): Linear(in_features=48, out_features=48, bias=False)
        (lin): Linear(in_features=48, out_features=48, bias=False)
        (prop11): Gra_inc(K=2, temp=Parameter containing:
        tensor([0.9664, 0.9692, 0.9786], device='cuda:0', requires_grad=True))
      )
    )
    (pools): ModuleList(
      (0): TopKPooling(48, ratio=0.9, multiplier=1.0)
      (1): TopKPooling(48, ratio=0.7, multiplier=1.0)
      (2): TopKPooling(48, ratio=0.6, multiplier=1.0)
      (3): TopKPooling(48, ratio=0.5, multiplier=1.0)
    )
    (bn_layers): ModuleList(
      (0): BatchNorm1d(48, eps=1e-05, momentum=0.1, affine=True, track_running_stats=True)
      (1): BatchNorm1d(48, eps=1e-05, momentum=0.1, affine=True, track_running_stats=True)
      (2): BatchNorm1d(48, eps=1e-05, momentum=0.1, affine=True, track_running_stats=True)
      (3): BatchNorm1d(48, eps=1e-05, momentum=0.1, affine=True, track_running_stats=True)
      (4): BatchNorm1d(48, eps=1e-05, momentum=0.1, affine=True, track_running_stats=True)
      (5): BatchNorm1d(48, eps=1e-05, momentum=0.1, affine=True, track_running_stats=True)
      (6): BatchNorm1d(48, eps=1e-05, momentum=0.1, affine=True, track_running_stats=True)
      (7): BatchNorm1d(48, eps=1e-05, momentum=0.1, affine=True, track_running_stats=True)
      (8): BatchNorm1d(48, eps=1e-05, momentum=0.1, affine=True, track_running_stats=True)
    )
    (up_convs): ModuleList(
      (0): ConvG(
        (lin11): Linear(in_features=48, out_features=48, bias=False)
        (lin): Linear(in_features=48, out_features=48, bias=False)
        (prop11): Gra_inc(K=2, temp=Parameter containing:
        tensor([0.9454, 0.9498, 0.9532], device='cuda:0', requires_grad=True))
      )
      (1): ConvG(
        (lin11): Linear(in_features=48, out_features=48, bias=False)
        (lin): Linear(in_features=48, out_features=48, bias=False)
        (prop11): Gra_inc(K=2, temp=Parameter containing:
        tensor([0.9074, 0.9063, 0.9072], device='cuda:0', requires_grad=True))
      )
      (2): ConvG(
        (lin11): Linear(in_features=48, out_features=48, bias=False)
        (lin): Linear(in_features=48, out_features=48, bias=False)
        (prop11): Gra_inc(K=2, temp=Parameter containing:
        tensor([0.9100, 0.9343, 0.9606], device='cuda:0', requires_grad=True))
      )
      (3): ConvG(
        (lin11): Linear(in_features=48, out_features=48, bias=False)
        (lin): Linear(in_features=48, out_features=48, bias=False)
        (prop11): Gra_inc(K=2, temp=Parameter containing:
        tensor([0.9244, 0.9900, 1.1118], device='cuda:0', requires_grad=True))
      )
      (4): ConvG(
        (lin11): Linear(in_features=96, out_features=97, bias=False)
        (lin): Linear(in_features=96, out_features=97, bias=False)
        (prop11): Gra_inc(K=2, temp=Parameter containing:
        tensor([0.9196, 0.9929, 1.1344], device='cuda:0', requires_grad=True))
      )
    )
    (drop): Dropout(p=0.3, inplace=False)
  )
  (readout): Conv1dReadout(
    (conv1d_p1): Conv1d(1, 16, kernel_size=(97,), stride=(97,))
    (pool): MaxPool1d(kernel_size=2, stride=2, padding=0, dilation=1, ceil_mode=False)
    (conv1d_p2): Conv1d(16, 32, kernel_size=(5,), stride=(1,))
  )
  (mlp): MLPClassifier(
    (h1_weights): Linear(in_features=4512, out_features=128, bias=True)
    (h2_weights): Linear(in_features=128, out_features=2, bias=True)
  )
): 0.857 ± 0.068
NCI1 - Classifier(
  (feature_extractor): GraUNet(
    (down_convs): ModuleList(
      (0): ConvG(
        (lin11): Linear(in_features=37, out_features=48, bias=False)
        (lin): Linear(in_features=37, out_features=48, bias=False)
        (prop11): Gra_inc(K=2, temp=Parameter containing:
        tensor([0.7776, 0.8126, 1.0662], device='cuda:0', requires_grad=True))
      )
      (1): ConvG(
        (lin11): Linear(in_features=48, out_features=48, bias=False)
        (lin): Linear(in_features=48, out_features=48, bias=False)
        (prop11): Gra_inc(K=2, temp=Parameter containing:
        tensor([0.8598, 0.8753, 0.8645], device='cuda:0', requires_grad=True))
      )
      (2): ConvG(
        (lin11): Linear(in_features=48, out_features=48, bias=False)
        (lin): Linear(in_features=48, out_features=48, bias=False)
        (prop11): Gra_inc(K=2, temp=Parameter containing:
        tensor([0.9172, 0.9253, 0.9272], device='cuda:0', requires_grad=True))
      )
      (3): ConvG(
        (lin11): Linear(in_features=48, out_features=48, bias=False)
        (lin): Linear(in_features=48, out_features=48, bias=False)
        (prop11): Gra_inc(K=2, temp=Parameter containing:
        tensor([0.9391, 0.9396, 0.9428], device='cuda:0', requires_grad=True))
      )
      (4): ConvG(
        (lin11): Linear(in_features=48, out_features=48, bias=False)
        (lin): Linear(in_features=48, out_features=48, bias=False)
        (prop11): Gra_inc(K=2, temp=Parameter containing:
        tensor([0.9541, 0.9543, 0.9566], device='cuda:0', requires_grad=True))
      )
    )
    (pools): ModuleList(
      (0): TopKPooling(48, ratio=0.9, multiplier=1.0)
      (1): TopKPooling(48, ratio=0.7, multiplier=1.0)
      (2): TopKPooling(48, ratio=0.6, multiplier=1.0)
      (3): TopKPooling(48, ratio=0.5, multiplier=1.0)
    )
    (bn_layers): ModuleList(
      (0): BatchNorm1d(48, eps=1e-05, momentum=0.1, affine=True, track_running_stats=True)
      (1): BatchNorm1d(48, eps=1e-05, momentum=0.1, affine=True, track_running_stats=True)
      (2): BatchNorm1d(48, eps=1e-05, momentum=0.1, affine=True, track_running_stats=True)
      (3): BatchNorm1d(48, eps=1e-05, momentum=0.1, affine=True, track_running_stats=True)
      (4): BatchNorm1d(48, eps=1e-05, momentum=0.1, affine=True, track_running_stats=True)
      (5): BatchNorm1d(48, eps=1e-05, momentum=0.1, affine=True, track_running_stats=True)
      (6): BatchNorm1d(48, eps=1e-05, momentum=0.1, affine=True, track_running_stats=True)
      (7): BatchNorm1d(48, eps=1e-05, momentum=0.1, affine=True, track_running_stats=True)
      (8): BatchNorm1d(48, eps=1e-05, momentum=0.1, affine=True, track_running_stats=True)
    )
    (up_convs): ModuleList(
      (0): ConvG(
        (lin11): Linear(in_features=48, out_features=48, bias=False)
        (lin): Linear(in_features=48, out_features=48, bias=False)
        (prop11): Gra_inc(K=2, temp=Parameter containing:
        tensor([0.9383, 0.9413, 0.9438], device='cuda:0', requires_grad=True))
      )
      (1): ConvG(
        (lin11): Linear(in_features=48, out_features=48, bias=False)
        (lin): Linear(in_features=48, out_features=48, bias=False)
        (prop11): Gra_inc(K=2, temp=Parameter containing:
        tensor([0.9257, 0.9357, 0.9344], device='cuda:0', requires_grad=True))
      )
      (2): ConvG(
        (lin11): Linear(in_features=48, out_features=48, bias=False)
        (lin): Linear(in_features=48, out_features=48, bias=False)
        (prop11): Gra_inc(K=2, temp=Parameter containing:
        tensor([0.8686, 0.8669, 0.8698], device='cuda:0', requires_grad=True))
      )
      (3): ConvG(
        (lin11): Linear(in_features=48, out_features=48, bias=False)
        (lin): Linear(in_features=48, out_features=48, bias=False)
        (prop11): Gra_inc(K=2, temp=Parameter containing:
        tensor([0.6091, 0.7816, 0.9823], device='cuda:0', requires_grad=True))
      )
      (4): ConvG(
        (lin11): Linear(in_features=96, out_features=97, bias=False)
        (lin): Linear(in_features=96, out_features=97, bias=False)
        (prop11): Gra_inc(K=2, temp=Parameter containing:
        tensor([0.7587, 0.8379, 1.0096], device='cuda:0', requires_grad=True))
      )
    )
    (drop): Dropout(p=0.3, inplace=False)
  )
  (readout): Conv1dReadout(
    (conv1d_p1): Conv1d(1, 16, kernel_size=(97,), stride=(97,))
    (pool): MaxPool1d(kernel_size=2, stride=2, padding=0, dilation=1, ceil_mode=False)
    (conv1d_p2): Conv1d(16, 32, kernel_size=(5,), stride=(1,))
  )
  (mlp): MLPClassifier(
    (h1_weights): Linear(in_features=352, out_features=128, bias=True)
    (h2_weights): Linear(in_features=128, out_features=2, bias=True)
  )
): 0.781 ± 0.017
PROTEINS - Classifier(
  (feature_extractor): GraUNet(
    (down_convs): ModuleList(
      (0): ConvG(
        (lin11): Linear(in_features=3, out_features=48, bias=False)
        (lin): Linear(in_features=3, out_features=48, bias=False)
        (prop11): Gra_inc(K=2, temp=Parameter containing:
        tensor([0.9372, 1.0112, 1.0194], device='cuda:0', requires_grad=True))
      )
      (1): ConvG(
        (lin11): Linear(in_features=48, out_features=48, bias=False)
        (lin): Linear(in_features=48, out_features=48, bias=False)
        (prop11): Gra_inc(K=2, temp=Parameter containing:
        tensor([0.9421, 0.9286, 0.9261], device='cuda:0', requires_grad=True))
      )
      (2): ConvG(
        (lin11): Linear(in_features=48, out_features=48, bias=False)
        (lin): Linear(in_features=48, out_features=48, bias=False)
        (prop11): Gra_inc(K=2, temp=Parameter containing:
        tensor([0.9146, 0.9138, 0.9166], device='cuda:0', requires_grad=True))
      )
      (3): ConvG(
        (lin11): Linear(in_features=48, out_features=48, bias=False)
        (lin): Linear(in_features=48, out_features=48, bias=False)
        (prop11): Gra_inc(K=2, temp=Parameter containing:
        tensor([0.9168, 0.9228, 0.9291], device='cuda:0', requires_grad=True))
      )
      (4): ConvG(
        (lin11): Linear(in_features=48, out_features=48, bias=False)
        (lin): Linear(in_features=48, out_features=48, bias=False)
        (prop11): Gra_inc(K=2, temp=Parameter containing:
        tensor([0.9325, 0.9325, 0.9400], device='cuda:0', requires_grad=True))
      )
    )
    (pools): ModuleList(
      (0): TopKPooling(48, ratio=0.9, multiplier=1.0)
      (1): TopKPooling(48, ratio=0.7, multiplier=1.0)
      (2): TopKPooling(48, ratio=0.6, multiplier=1.0)
      (3): TopKPooling(48, ratio=0.5, multiplier=1.0)
    )
    (bn_layers): ModuleList(
      (0): BatchNorm1d(48, eps=1e-05, momentum=0.1, affine=True, track_running_stats=True)
      (1): BatchNorm1d(48, eps=1e-05, momentum=0.1, affine=True, track_running_stats=True)
      (2): BatchNorm1d(48, eps=1e-05, momentum=0.1, affine=True, track_running_stats=True)
      (3): BatchNorm1d(48, eps=1e-05, momentum=0.1, affine=True, track_running_stats=True)
      (4): BatchNorm1d(48, eps=1e-05, momentum=0.1, affine=True, track_running_stats=True)
      (5): BatchNorm1d(48, eps=1e-05, momentum=0.1, affine=True, track_running_stats=True)
      (6): BatchNorm1d(48, eps=1e-05, momentum=0.1, affine=True, track_running_stats=True)
      (7): BatchNorm1d(48, eps=1e-05, momentum=0.1, affine=True, track_running_stats=True)
      (8): BatchNorm1d(48, eps=1e-05, momentum=0.1, affine=True, track_running_stats=True)
    )
    (up_convs): ModuleList(
      (0): ConvG(
        (lin11): Linear(in_features=48, out_features=48, bias=False)
        (lin): Linear(in_features=48, out_features=48, bias=False)
        (prop11): Gra_inc(K=2, temp=Parameter containing:
        tensor([0.9218, 0.9217, 0.9284], device='cuda:0', requires_grad=True))
      )
      (1): ConvG(
        (lin11): Linear(in_features=48, out_features=48, bias=False)
        (lin): Linear(in_features=48, out_features=48, bias=False)
        (prop11): Gra_inc(K=2, temp=Parameter containing:
        tensor([0.9233, 0.9178, 0.9209], device='cuda:0', requires_grad=True))
      )
      (2): ConvG(
        (lin11): Linear(in_features=48, out_features=48, bias=False)
        (lin): Linear(in_features=48, out_features=48, bias=False)
        (prop11): Gra_inc(K=2, temp=Parameter containing:
        tensor([0.9594, 0.9388, 0.9350], device='cuda:0', requires_grad=True))
      )
      (3): ConvG(
        (lin11): Linear(in_features=48, out_features=48, bias=False)
        (lin): Linear(in_features=48, out_features=48, bias=False)
        (prop11): Gra_inc(K=2, temp=Parameter containing:
        tensor([0.9911, 1.0078, 1.0131], device='cuda:0', requires_grad=True))
      )
      (4): ConvG(
        (lin11): Linear(in_features=96, out_features=97, bias=False)
        (lin): Linear(in_features=96, out_features=97, bias=False)
        (prop11): Gra_inc(K=2, temp=Parameter containing:
        tensor([0.9930, 1.0150, 1.0206], device='cuda:0', requires_grad=True))
      )
    )
    (drop): Dropout(p=0.3, inplace=False)
  )
  (readout): Conv1dReadout(
    (conv1d_p1): Conv1d(1, 16, kernel_size=(97,), stride=(97,))
    (pool): MaxPool1d(kernel_size=2, stride=2, padding=0, dilation=1, ceil_mode=False)
    (conv1d_p2): Conv1d(16, 32, kernel_size=(5,), stride=(1,))
  )
  (mlp): MLPClassifier(
    (h1_weights): Linear(in_features=384, out_features=128, bias=True)
    (h2_weights): Linear(in_features=128, out_features=2, bias=True)
  )
): 0.742 ± 0.053
COLLAB - Classifier(
  (feature_extractor): GraUNet(
    (down_convs): ModuleList(
      (0): ConvG(
        (lin11): Linear(in_features=492, out_features=48, bias=False)
        (lin): Linear(in_features=492, out_features=48, bias=False)
        (prop11): Gra_inc(K=2, temp=Parameter containing:
        tensor([0.3689, 0.4477, 1.0910], device='cuda:0', requires_grad=True))
      )
      (1): ConvG(
        (lin11): Linear(in_features=48, out_features=48, bias=False)
        (lin): Linear(in_features=48, out_features=48, bias=False)
        (prop11): Gra_inc(K=2, temp=Parameter containing:
        tensor([0.6016, 0.6942, 0.8123], device='cuda:0', requires_grad=True))
      )
      (2): ConvG(
        (lin11): Linear(in_features=48, out_features=48, bias=False)
        (lin): Linear(in_features=48, out_features=48, bias=False)
        (prop11): Gra_inc(K=2, temp=Parameter containing:
        tensor([0.9010, 0.8513, 0.8221], device='cuda:0', requires_grad=True))
      )
      (3): ConvG(
        (lin11): Linear(in_features=48, out_features=48, bias=False)
        (lin): Linear(in_features=48, out_features=48, bias=False)
        (prop11): Gra_inc(K=2, temp=Parameter containing:
        tensor([0.9455, 0.9242, 0.9183], device='cuda:0', requires_grad=True))
      )
      (4): ConvG(
        (lin11): Linear(in_features=48, out_features=48, bias=False)
        (lin): Linear(in_features=48, out_features=48, bias=False)
        (prop11): Gra_inc(K=2, temp=Parameter containing:
        tensor([0.9384, 0.9355, 0.9348], device='cuda:0', requires_grad=True))
      )
    )
    (pools): ModuleList(
      (0): TopKPooling(48, ratio=0.9, multiplier=1.0)
      (1): TopKPooling(48, ratio=0.7, multiplier=1.0)
      (2): TopKPooling(48, ratio=0.6, multiplier=1.0)
      (3): TopKPooling(48, ratio=0.5, multiplier=1.0)
    )
    (bn_layers): ModuleList(
      (0): BatchNorm1d(48, eps=1e-05, momentum=0.1, affine=True, track_running_stats=True)
      (1): BatchNorm1d(48, eps=1e-05, momentum=0.1, affine=True, track_running_stats=True)
      (2): BatchNorm1d(48, eps=1e-05, momentum=0.1, affine=True, track_running_stats=True)
      (3): BatchNorm1d(48, eps=1e-05, momentum=0.1, affine=True, track_running_stats=True)
      (4): BatchNorm1d(48, eps=1e-05, momentum=0.1, affine=True, track_running_stats=True)
      (5): BatchNorm1d(48, eps=1e-05, momentum=0.1, affine=True, track_running_stats=True)
      (6): BatchNorm1d(48, eps=1e-05, momentum=0.1, affine=True, track_running_stats=True)
      (7): BatchNorm1d(48, eps=1e-05, momentum=0.1, affine=True, track_running_stats=True)
      (8): BatchNorm1d(48, eps=1e-05, momentum=0.1, affine=True, track_running_stats=True)
    )
    (up_convs): ModuleList(
      (0): ConvG(
        (lin11): Linear(in_features=48, out_features=48, bias=False)
        (lin): Linear(in_features=48, out_features=48, bias=False)
        (prop11): Gra_inc(K=2, temp=Parameter containing:
        tensor([0.9327, 0.9246, 0.9331], device='cuda:0', requires_grad=True))
      )
      (1): ConvG(
        (lin11): Linear(in_features=48, out_features=48, bias=False)
        (lin): Linear(in_features=48, out_features=48, bias=False)
        (prop11): Gra_inc(K=2, temp=Parameter containing:
        tensor([0.8889, 0.8399, 0.8469], device='cuda:0', requires_grad=True))
      )
      (2): ConvG(
        (lin11): Linear(in_features=48, out_features=48, bias=False)
        (lin): Linear(in_features=48, out_features=48, bias=False)
        (prop11): Gra_inc(K=2, temp=Parameter containing:
        tensor([0.8571, 0.7904, 0.8793], device='cuda:0', requires_grad=True))
      )
      (3): ConvG(
        (lin11): Linear(in_features=48, out_features=48, bias=False)
        (lin): Linear(in_features=48, out_features=48, bias=False)
        (prop11): Gra_inc(K=2, temp=Parameter containing:
        tensor([0.5457, 0.6601, 0.8109], device='cuda:0', requires_grad=True))
      )
      (4): ConvG(
        (lin11): Linear(in_features=96, out_features=97, bias=False)
        (lin): Linear(in_features=96, out_features=97, bias=False)
        (prop11): Gra_inc(K=2, temp=Parameter containing:
        tensor([0.4446, 0.5829, 0.8180], device='cuda:0', requires_grad=True))
      )
    )
    (drop): Dropout(p=0.3, inplace=False)
  )
  (readout): Conv1dReadout(
    (conv1d_p1): Conv1d(1, 16, kernel_size=(97,), stride=(97,))
    (pool): MaxPool1d(kernel_size=2, stride=2, padding=0, dilation=1, ceil_mode=False)
    (conv1d_p2): Conv1d(16, 32, kernel_size=(5,), stride=(1,))
  )
  (mlp): MLPClassifier(
    (h1_weights): Linear(in_features=832, out_features=128, bias=True)
    (h2_weights): Linear(in_features=128, out_features=3, bias=True)
  )
): 0.914 ± 0.045

Process finished with exit code 0
